tb_dqn_model/policy.pth (torch, 47743 bytes, 12 tensors)

q_net.q_net.0.weight f4 [64, 16]
0	0x3e896683	0.26836023
1	0xbecc48ae	-0.398992
2	0x3eb998b5	0.3624932
3	0xbe4ad449	-0.19807543
4	0x3e1859ae	0.1487796
5	0x3e85401b	0.2602547
6	0xbde365e5	-0.11103419
7	0xbe4baf2e	-0.19891044
8	0xbeb865f7	-0.36015293
9	0x3ddc3c35	0.10753671
10	0x3e224a9b	0.15848772
11	0x3ddf3225	0.10898236
12	0x3ea3a21a	0.3195961
13	0x3d78c550	0.060735047
14	0x3d874b14	0.06606117
15	0xbdc188b0	-0.09449899
16	0x3f161a5e	0.58633983
17	0x3ddc2874	0.10749903
18	0xbea62763	-0.32451925
19	0xbef4d4a4	-0.47818482
20	0x3dc69061	0.09695507
21	0x3ea62192	0.32447487
22	0xbe4a99d6	-0.19785246
23	0x3d93fdda	0.07226153
24	0xbe9f7b65	-0.3114883
25	0x3e8c50c9	0.27405384
26	0xbef26a23	-0.473466
27	0xbd0dd238	-0.03462431
28	0x3eeebbcc	0.46627653
29	0x3eb5b738	0.35491347
30	0xbe4190dc	-0.18902916
31	0x3e3b24ba	0.18275729
32	0x3f041e09	0.5160833
33	0x3e10a2b3	0.14124565
34	0x3e1490a1	0.14508297
35	0xbe5e7c86	-0.2172719
36	0xbdec7249	-0.11545236
37	0xbe104648	-0.1408931
38	0x3e52b6a8	0.2057749
39	0xbe4bc0d0	-0.19897771
40	0xbeccc7e4	-0.39996254
41	0xbe19b572	-0.15010622
42	0x3eb061c8	0.344496
43	0x3e523194	0.20526725
44	0x3db50418	0.088386714
45	0xbd8fd2da	-0.070226386
46	0xbece32bf	-0.4027309
47	0x3e38e628	0.18056548
48	0x3e9d06bd	0.30669203
49	0xbedaa3c4	-0.42703068
50	0xbeec5550	-0.46158838
51	0xbed23d2a	-0.4106229
52	0x3e8d165a	0.27556115
53	0x3e9f3ece	0.31102604
54	0x3d66376f	0.05620521
55	0x3d44aa03	0.0480137
56	0x3ec8178d	0.39080468
57	0x3e48fab4	0.19626886
58	0xbd2bbb66	-0.041926764
59	0xbc8fbee3	-0.017547077
60	0x3e2d7301	0.16938402
61	0xbe820a1a	-0.25398332
62	0xbe349fc8	-0.17639077
63	0xbe82da5f	-0.2555723
64	0xbee08849	-0.43853977
65	0x3ea2ef29	0.3182309
66	0xbececd12	-0.4039083
67	0x3e97cf37	0.2965028
68	0x3e3da1a8	0.18518698
69	0xbec4735f	-0.3836927
70	0xbe0b66fb	-0.13613503
71	0xbca9d6da	-0.020732332
72	0x3dd69207	0.10477071
73	0xbedfd550	-0.43717432
74	0x3e863da2	0.26218897
75	0x3e3d1be6	0.18467674
76	0x3e12d965	0.14340742
77	0xbe5eabd1	-0.2174523
78	0xbe36b0ee	-0.17840931
79	0xbdf2c9df	-0.1185491
80	0x3ea45615	0.32096925
81	0xbe6bb29a	-0.2301735
82	0xbddc3df2	-0.10754003
83	0xbdd0a0d3	-0.10186925
84	0xbe2ab838	-0.16671836
85	0x3e583e85	0.211176
86	0x3e80d38d	0.251614
87	0x3ead6757	0.33867905
88	0xbd4e8547	-0.050420072
89	0xbc715465	-0.014729594
90	0xbe0a6f1f	-0.13518952
91	0x3e2a1368	0.16608965
92	0x3e0f2fb8	0.13983047
93	0xbebb16d2	-0.36540848
94	0x3e15104d	0.14557
95	0xbeb2a824	-0.34893906
96	0x3d8697c1	0.065719135
97	0xbdc73e6d	-0.09728704
98	0xbc896587	-0.016772045
99	0x3e6bf306	0.23041925
100	0x3c912aa3	0.017720526
101	0x3e4d6e87	0.20061694
102	0x3ebed43a	0.3727129
103	0xbe4baf01	-0.19890977
104	0x3ea47da4	0.32127106
105	0xbd533e74	-0.05157323
106	0xbe03457e	-0.12819478
107	0x3d0cd8df	0.034386512
108	0xbdce9a48	-0.100880206
109	0x3f01e47d	0.5073927
110	0xbe3229fc	-0.17398828
111	0x3e881d21	0.26584724
112	0x3de07645	0.10960058
113	0xbe8aaa39	-0.27082995
114	0x3e4a3c06	0.1974946
115	0x3e468025	0.19384821
116	0x3e954ab0	0.29158545
117	0x3ee0fcd7	0.43942901
118	0xbe7cd69c	-0.24691242
119	0x3e0cea65	0.1376129
120	0xbf034262	-0.5127317
121	0x3defc54c	0.11707553
122	0x3f14967d	0.58042127
123	0x3e0ac584	0.13551909
124	0xbe64e017	-0.22351108
125	0x3e07b553	0.13252763
126	0xbec8f368	-0.39248204
127	0x3e4937c3	0.19650178
128	0x3e883806	0.26605242
129	0xbee71c4f	-0.45138785
130	0xbcf4d73d	-0.02988779
131	0x3ea9ae49	0.33140782
132	0xbd0b6d8a	-0.03404001
133	0x3e7982ae	0.24366257
134	0xbec0870e	-0.3760304
135	0x3ea38123	0.3193446
136	0xbd39a4d6	-0.045323215
137	0xbe8e76e0	-0.2782507
138	0x3e0f2f1e	0.13982818
139	0xbe0cb111	-0.1373942
140	0xbebe6d52	-0.3719278
141	0x3d9e7936	0.07737963
142	0xbdf0ff9e	-0.11767505
143	0x3deeb0fc	0.11654851
144	0xbe9a9bd8	-0.30197024
145	0xbe163b76	-0.1467112
146	0x3e405fef	0.18786596
147	0x3d6cf840	0.057853937
148	0x3c9052ab	0.017617544
149	0x3ea4bcf5	0.32175413
150	0x3d471acb	0.048609536
151	0xbe882f8e	-0.2659878
152	0x3e4d6ebe	0.20061776
153	0x3db6be20	0.08922982
154	0xbe194824	-0.14968926
155	0x3dedc480	0.11609745
156	0xbeac3d0c	-0.33640325
157	0xbe42c768	-0.1902138
158	0x3e3302b2	0.17481497
159	0xbea8a09f	-0.32935044
160	0xbe24fd5d	-0.16112275
161	0xbdf6a1dd	-0.12042592
162	0x3cc73455	0.024316946
163	0xbeeebcc4	-0.46628392
164	0xbdd5d0a9	-0.104401894
165	0x3e045ed4	0.12926799
166	0xbe9c5b27	-0.30538294
167	0xbddb0556	-0.10694377
168	0x3e4f509b	0.20245592
169	0xbede645c	-0.43435943
170	0x3f28cae6	0.659346
171	0xbdc8ea53	-0.09810319
172	0xbeb5e0a8	-0.35522962
173	0x3f019964	0.5062468
174	0x3e3d4c9b	0.18486254
175	0xbd0d2018	-0.034454435
176	0x3e77c991	0.24197985
177	0x3e6f9d35	0.23399813
178	0xbf3f336f	-0.74687856
179	0x3df4a53d	0.11945579
180	0x3def8a23	0.11696269
181	0xbe5f8830	-0.21829295
182	0x3b6e459a	0.0036357404
183	0x3e5cc7a2	0.21560529
184	0xbe4541cb	-0.1926338
185	0x3e053608	0.13008893
186	0xbe55f79e	-0.2089524
187	0xbeba1dd8	-0.36350894
188	0x3ec09b95	0.376187
189	0x3eca87a5	0.39556614
190	0x3e1bb205	0.15204628
191	0x3d8ffe06	0.07030873
192	0x3edbac0e	0.42904705
193	0x3e126b87	0.14298831
194	0xbd48ca83	-0.049021255
195	0x3dcb0230	0.099125266
196	0x3eaeadfe	0.3411712
197	0x3e35d460	0.17756796
198	0xbd60eaed	-0.054911543
199	0xbe8cfdbf	-0.27537343
200	0x3e3f611f	0.18689393
201	0xbd5afd6f	-0.05346435
202	0x3e4b340d	0.19844075
203	0xbd2d779d	-0.0423504
204	0xbde4e8ec	-0.11177239
205	0xbdb31481	-0.08744145
206	0xbe35e0ff	-0.1776161
207	0xbee46146	-0.44605464
208	0xbeabbdcf	-0.3354325
209	0x3e96394f	0.29340598
210	0x3e93aaa0	0.28841114
211	0x3e42dc6a	0.19029394
212	0xbe492ed6	-0.19646773
213	0x3dc90f18	0.09817332
214	0xbe723a78	-0.23655117
215	0x3dbbff8b	0.091796
216	0x3e0bed39	0.13664712
217	0xbeae66fc	-0.34062946
218	0xbe9749ac	-0.29548395
219	0xbc972b47	-0.018453253
220	0xbdb76d0a	-0.089563444
221	0xbe9f4458	-0.3110683
222	0xbd27bbb5	-0.040950496
223	0x3e59299e	0.21207282
224	0x3d7701c8	0.060304433
225	0x3e3f3835	0.18673785
226	0x3ef89fc8	0.48559403
227	0x3ea0c89d	0.31403056
228	0x3e8d9b3e	0.27657503
229	0xbf0cb5c2	-0.5496484
230	0xbe8ec397	-0.27883598
231	0x3dce0ea3	0.100613855
232	0x3ea64f71	0.32482484
233	0xbe24ceb9	-0.16094483
234	0x3e886f42	0.26647383
235	0x3e2c6139	0.16833963
236	0xbdc44707	-0.0958386
237	0x3ec23177	0.37928364
238	0xbe84b94a	-0.25922614
239	0xbe7c371c	-0.24630398
240	0xbec53dcc	-0.3852371
241	0x3e008719	0.12551536
242	0xbe36a5c0	-0.17836666
243	0xbeb4f72f	-0.35344836
244	0x3e82d799	0.25555113
245	0x3d87546d	0.066079
246	0x3db163bc	0.08661601
247	0xbeed2c03	-0.4632264
248	0xbd596a4a	-0.05307988
249	0x3e9579e1	0.2919455
250	0xbba6ac17	-0.0050864327
251	0x3e5f7718	0.21822774
252	0x3ea83096	0.32849568
253	0xbe56e05e	-0.20984027
254	0x3da3a6ca	0.07990797
255	0x3dd8985f	0.105759375

q_net.q_net.0.bias f4 [64]
0	0xbe48818a	-0.19580665
1	0xbe507c04	-0.20359808
2	0x3eaa87b6	0.33306664
3	0xbebf9452	-0.37417847
4	0x3e99a32a	0.30007297
5	0xbc50e62c	-0.01275019
6	0x3dfe9d71	0.12432373
7	0x3e15561d	0.14583631
8	0xbe26cac3	-0.16288285
9	0xbdfdc12c	-0.1239036
10	0xbe907a49	-0.28218296
11	0xbddd7f94	-0.10815349
12	0x3dfa71d2	0.12228741
13	0xbe68e8eb	-0.22745101
14	0xbe3ed846	-0.1863719
15	0x3dc65a58	0.096852005
16	0x3d0acebf	0.033888575
17	0xbe999ebd	-0.3000392
18	0x3e655649	0.22396196
19	0xbdb315ca	-0.0874439
20	0x3e692a62	0.22770074
21	0xbd9a1bbb	-0.075248204
22	0xbcb0182f	-0.021495907
23	0xbcdb10e8	-0.02674146
24	0xbd8a59e1	-0.06755424
25	0x3e222c4f	0.15837215
26	0xbea3bcb2	-0.319799
27	0x3d85cfc2	0.06533767
28	0xbd965328	-0.073400795
29	0xb8856948	-6.3615444e-05
30	0x3dd0fa46	0.10203986
31	0x3d76a6dc	0.060217723
32	0x3db6ec21	0.08931757
33	0xbe9cecdc	-0.3064946
34	0x3d46e3e9	0.048557196
35	0x3e0deadd	0.13859124
36	0xbe3bdc16	-0.18345675
37	0xbe6fc8aa	-0.23416391
38	0xbdbf4053	-0.09338441
39	0xbdabf300	-0.08395958
40	0x3ba1d689	0.0049389047
41	0xbdcc4816	-0.09974687
42	0xbe5e6e6d	-0.21721812
43	0x3d682983	0.056680214
44	0x3e10192d	0.14072104
45	0x3b665654	0.003514667
46	0xbbfa7c21	-0.007644192
47	0x3dfe81fb	0.124271356
48	0xbe52923f	-0.20563601
49	0x3db56bb7	0.088584356
50	0x3e6cb5be	0.23116204
51	0xbdf9e006	-0.12200932
52	0xbdb923e1	-0.090400465
53	0xbd095af5	-0.03353401
54	0xbe6db181	-0.23212244
55	0xbdf5710a	-0.11984451
56	0xbe603c13	-0.21897916
57	0x3dfd77f3	0.12376394
58	0xbc9243c3	-0.017854577
59	0xbec3c9f5	-0.38240018
60	0x3e089e6d	0.13341685
61	0xbe4f6582	-0.20253566
62	0xbd735d26	-0.059415005
63	0xbe121a6c	-0.14267892

q_net.q_net.2.weight f4 [64, 64]
0	0xbd762e10	-0.060102522
1	0xbf302ff5	-0.68823177
2	0xbe33320c	-0.1749956
3	0x3e46d94a	0.19418827
4	0xbd301929	-0.042992745
5	0x3e83b0ad	0.2572073
6	0x3d8cf376	0.06882374
7	0x3bc99356	0.006151597
8	0x3eb4de31	0.3532577
9	0xbdd62789	-0.104567595
10	0x3ec2f24b	0.3807548
11	0xbd40febc	-0.047117934
12	0xbe222cbb	-0.15837376
13	0x3c9a9b5a	0.018872906
14	0xbe0bcc46	-0.13652143
15	0xbe2ecf80	-0.17071342
16	0xbe15325a	-0.14569989
17	0x3ac2ca36	0.0014861289
18	0x3e092dff	0.13396452
19	0x3e16ffaa	0.14745966
20	0x3e01288a	0.1261312
21	0xbed02aa3	-0.4065753
22	0x3ee998b2	0.4562431
23	0x3da0bbea	0.07848342
24	0x3e8deae3	0.27718267
25	0xbe03a951	-0.12857558
26	0xbd96b233	-0.073582076
27	0x3e8e6dbc	0.27818096
28	0x3b8dd954	0.004328886
29	0x3ec28253	0.37990054
30	0xbe1364e0	-0.1439395
31	0xbd83380e	-0.06407176
32	0x3e268f4d	0.16265602
33	0xbf3087b8	-0.6895709
34	0x3dc322dc	0.09528133
35	0xbce5fc6c	-0.028074466
36	0x3e277ca2	0.16356137
37	0xbe31730a	-0.1732904
38	0x3ef94dcb	0.48692164
39	0xbedf2340	-0.4358158
40	0x3e53fb49	0.20701326
41	0x3e8f97a3	0.28045377
42	0x3cbcc1c6	0.023041617
43	0xbea1085e	-0.31451696
44	0xbd6178f3	-0.055046987
45	0xbde6f90f	-0.11277973
46	0x3da46690	0.08027375
47	0xbea924a2	-0.3303576
48	0x3d1e0afe	0.0385847
49	0x3b21cf28	0.0024690125
50	0x3e1e6a2d	0.1547019
51	0xbde3f8b1	-0.111314185
52	0xbeb72f9b	-0.35778508
53	0x3ea77435	0.32705846
54	0x3e0f0921	0.13968326
55	0x3da9b038	0.08285564
56	0x3c30b8f2	0.010786282
57	0xbd18e11b	-0.037324052
58	0x3db83500	0.08994484
59	0xbc63dabe	-0.013907133
60	0xbde8785b	-0.11351081
61	0xbe310ac5	-0.17289265
62	0x3e10fdaf	0.14159273
63	0x3eb601bf	0.35548207
64	0xbdb7cc7f	-0.089745514
65	0xbf208b94	-0.6271298
66	0xbf2292e2	-0.63505375
67	0xbe194cd1	-0.1497071
68	0x3dd99e4d	0.106258966
69	0xbd9e4f75	-0.07729999
70	0xbed83b98	-0.42232966
71	0xbecdbb96	-0.4018218
72	0x3da28f02	0.07937433
73	0x3e288965	0.16458662
74	0x3e9ea1de	0.3098287
75	0xbd488ab4	-0.048960403
76	0x3e0a97ba	0.13534442
77	0xbebe4c69	-0.3716767
78	0xbf2e4998	-0.68081045
79	0xbd278ccd	-0.040905762
80	0x3dc01a99	0.09380073
81	0xbe02ef7e	-0.12786672
82	0xbde778c2	-0.113023296
83	0xbdf5703e	-0.11984299
84	0x3dc7ffc2	0.09765579
85	0xbe1fcea9	-0.15606178
86	0x3e76bd21	0.24095584
87	0xbdcd480e	-0.10023509
88	0xbecbae2d	-0.39781323
89	0x3e8af298	0.2713821
90	0xbe77b855	-0.24191411
91	0x3eac497f	0.33649823
92	0xbeac03f3	-0.33596763
93	0x3db7263e	0.08942841
94	0x3e3d2ef1	0.18474938
95	0x3e0d23b4	0.13783151
96	0x3e3fd506	0.18733606
97	0xbf1f410d	-0.62208635
98	0x3ea24b1d	0.31697932
99	0x3e6773c0	0.22602749
100	0x3e5cecd2	0.21574715
101	0xbeb6941d	-0.35659876
102	0x3ef240df	0.47315118
103	0xbebd53b2	-0.36977917
104	0xbda2565e	-0.079266295
105	0x3e4eb7f1	0.20187356
106	0x3dfc30eb	0.12314018
107	0xbdb7a1a8	-0.0896638
108	0x3e8634ef	0.2621226
109	0xbf6c43a2	-0.922907
110	0xbe67d9a3	-0.22641616
111	0x3df6dc0d	0.1205369
112	0xbe3ce683	-0.18447308
113	0xbd976158	-0.07391614
114	0x3ee6d7c3	0.45086488
115	0xbdd11386	-0.10208802
116	0xbc6b28e1	-0.014353008
117	0x3ea88772	0.32915837
118	0xbe96c3e9	-0.29446343
119	0x3e0464ec	0.12929124
120	0x3e4992d9	0.19684924
121	0xbca6af94	-0.020347394
122	0xbd43072c	-0.04761426
123	0x3d92bacc	0.07164535
124	0xbf1b3c62	-0.6063901
125	0xbe14a539	-0.14516152
126	0x3e2d8195	0.16943963
127	0x3ef725ce	0.4827103
128	0xbe28d610	-0.16487908
129	0xbf1fa793	-0.6236507
130	0xbe53f674	-0.20699483
131	0x3dfd2477	0.12360471
132	0xbcc64637	-0.024203403
133	0x3daa1c6f	0.083062045
134	0xbe7cbe12	-0.24681881
135	0xbf21aed6	-0.63157403
136	0xbba1aa07	-0.004933599
137	0x3ea59acf	0.32344672
138	0x3d4f099a	0.050546266
139	0xbdf4601a	-0.119323924
140	0x3de64922	0.11244418
141	0xbd1b6c9f	-0.037945386
142	0x3e97c0ee	0.2963938
143	0x3e10efdc	0.14153999
144	0xbdbb93d0	-0.09159052
145	0x3e2f8e44	0.17144114
146	0xbdbaec3f	-0.091270916
147	0x3e989201	0.29798892
148	0xbe1090a9	-0.14117683
149	0xbc4c1661	-0.012456507
150	0xbeb38d5f	-0.35068795
151	0x3cdbd68a	0.026835699
152	0xbd0f63cc	-0.035007283
153	0xbe4c1fc4	-0.19933993
154	0xbec001a4	-0.37501252
155	0xbf62c53c	-0.88582206
156	0x3e96ebee	0.29476875
157	0x3de3c54f	0.11121618
158	0xbea008e1	-0.31256774
159	0x3debed26	0.11519842
160	0x3db9286b	0.09040912
161	0x3e0f9540	0.14021778
162	0x3c4a224f	0.012337281
163	0xbced2eb3	-0.028952932
164	0xbe15e288	-0.14637196
165	0xbe6e3c75	-0.2326525
166	0x3cbc266b	0.022967538
167	0xbe695590	-0.22786546
168	0xbd47bcc2	-0.048763998
169	0x3da3aaf3	0.0799159
170	0xbe785824	-0.24252373
171	0xbdc8dbaf	-0.09807526
172	0x3dfd3f13	0.12365546
173	0x3ce95214	0.02848152
174	0x3dbf7198	0.09347838
175	0x3e5ebddd	0.21752115
176	0x3e14274e	0.14468119
177	0x3d67f7af	0.056632694
178	0x3cc6d1c6	0.02426995
179	0x3eaca44a	0.33719093
180	0x3e8f22df	0.27956292
181	0x3e230733	0.15920715
182	0x3d98316b	0.07431301
183	0x3d327cfd	0.04357623
184	0xbd5fcac3	-0.054636728
185	0xbe307c11	-0.17234828
186	0xbe8c6ab1	-0.2742515
187	0x3db947aa	0.09046872
188	0xbe4fcdae	-0.20293304
189	0x3e56cb13	0.20975904
190	0xbd650f5c	-0.05592285
191	0x3e0dd3da	0.13850346
192	0xbdfc60cc	-0.1232315
193	0xbebe8105	-0.3720781
194	0x3e523f43	0.20531945
195	0xbf3abe7e	-0.7294692
196	0x3e24ea2d	0.16104956
197	0xbddba546	-0.10724883
198	0x3ea47825	0.32122913
199	0xbdfeadc6	-0.124354884
200	0xbf033cb4	-0.512645
201	0xbd208f60	-0.039199233
202	0x3df3a5e0	0.118968725
203	0xbe019373	-0.12653904
204	0x3da29e37	0.07940333
205	0xbe0afda8	-0.13573325
206	0x3e882528	0.26590848
207	0x3d68ef57	0.056868877
208	0x3e5b71ef	0.21430181
209	0x3e11d0dd	0.14239831
210	0x3e91af3a	0.28454
211	0x3e3343d8	0.17506349
212	0xbdcdeebc	-0.100553006
213	0x3e5885fa	0.21144858
214	0xbe72f5c0	-0.23726559
215	0x3d98348b	0.07431897
216	0x3c54e573	0.012994158
217	0x3e664c3a	0.22490016
218	0xbcaf56b7	-0.021403654
219	0xbd5e0555	-0.054204304
220	0xbe569a16	-0.20957217
221	0xbdd1787b	-0.10228058
222	0x3c850304	0.01623679
223	0xbe753126	-0.2394453
224	0x3e12119d	0.14264531
225	0x3e11bd56	0.14232382
226	0xbea5ffee	-0.3242182
227	0x3e304369	0.17213215
228	0x3dd69e55	0.10479418
229	0x3d751670	0.05983585
230	0x3d71c748	0.05902794
231	0x3c6a5784	0.014303092
232	0x3dda2b7e	0.10652827
233	0xbd4b4dc8	-0.049634725
234	0x3e4d9f0a	0.200802
235	0x3d66488c	0.05622153
236	0xbc74165d	-0.01489791
237	0x3d980ec2	0.0742469
238	0x3e0c060f	0.13674186
239	0x3ce0a997	0.027424617
240	0xbec31e75	-0.38109174
241	0x3e342077	0.1759051
242	0x3e0a5a1a	0.13510934
243	0xbea5d750	-0.32390833
244	0x3d6aad0f	0.057293948
245	0x3dc489cc	0.09596595
246	0x3e8085c9	0.2510207
247	0x3d93eac7	0.072225146
248	0xbe00f142	-0.12592033
249	0xbb37e275	-0.0028058563
250	0x3e1a4d8b	0.15068643
251	0xbd54f239	-0.051988814
252	0x3e11e4c0	0.14247417
253	0x3e4b64e5	0.19862707
254	0xbe56427c	-0.209238
255	0x3d96df2c	0.073667854

q_net.q_net.2.bias f4 [64]
0	0x3da43dc5	0.08019594
1	0x3e2791c4	0.16364199
2	0xbda8b910	-0.08238423
3	0x3e0238e5	0.12717016
4	0x3c394528	0.011307992
5	0x3c2b76ca	0.010465333
6	0xbd004440	-0.03131509
7	0xbcf85f61	-0.030318918
8	0xbdc68f0f	-0.09695255
9	0x3e495657	0.19661842
10	0xbd220ff4	-0.039565995
11	0x3d66526e	0.056230955
12	0xbca70569	-0.020388322
13	0x3daa4137	0.0831322
14	0xbd1239e3	-0.035699736
15	0xbe1466fa	-0.14492407
16	0xbd8f2d72	-0.0699109
17	0xbdc9e037	-0.09857219
18	0xbd2b0e82	-0.041761883
19	0x3e207f33	0.15673523
20	0xbd0f09e4	-0.03492154
21	0x3d8dcdf5	0.06924049
22	0x3e32653c	0.1742143
23	0xbd176791	-0.036964003
24	0x3e8182dd	0.25295153
25	0xbd30f157	-0.04319891
26	0x3e22514c	0.15851325
27	0x3e8f43f1	0.27981523
28	0x3e87c868	0.26520085
29	0x3da0c5ec	0.078502506
30	0xbd6f117c	-0.058366284
31	0x3e30aaba	0.17252627
32	0x3e893275	0.26796308
33	0x3e8dcccb	0.27695307
34	0xbd0d91a2	-0.034562714
35	0xbd08202f	-0.033233818
36	0x3d3d1b60	0.046168685
37	0x3dc80283	0.09766104
38	0x3c0007a4	0.007814322
39	0x3c9c6c2f	0.019094555
40	0x3d402f35	0.04692002
41	0xbdf1a937	-0.11799853
42	0x3c86710c	0.016411327
43	0x3d489e04	0.04897882
44	0x3e38e676	0.18056664
45	0x3db5190f	0.0884267
46	0xbbf7cb5d	-0.0075620846
47	0xbe07a325	-0.13245828
48	0x3e6af2ac	0.22944134
49	0x3d54627b	0.05185173
50	0x3e3cd0a3	0.18438964
51	0x3e09b94b	0.1344959
52	0xbd774cf9	-0.06037614
53	0x3c957db5	0.018248418
54	0xbdf8e661	-0.12153316
55	0xbc27deea	-0.010246018
56	0xbcfa2d5b	-0.030539205
57	0x3e013b18	0.12620199
58	0xbd26c947	-0.040719297
59	0x3def348a	0.11679943
60	0x3dc02c9b	0.09383508
61	0x3e70dde6	0.23522148
62	0x3df2f4f2	0.11863126
63	0xbd305916	-0.04305371

q_net.q_net.4.weight f4 [2, 64]
0	0x3e11a408	0.14222729
1	0xbe3af774	-0.18258458
2	0x3d35d0ef	0.044388708
3	0x3d913ddf	0.07091879
4	0x3e143a11	0.14475276
5	0x3e0a9974	0.135351
6	0x3db33500	0.08750343
7	0xbf199a27	-0.6000084
8	0xbec3e70d	-0.38262215
9	0xbce282e6	-0.027650308
10	0x3e40b31d	0.18818326
11	0xbd3e6727	-0.046485092
12	0xbe8381bb	-0.25684914
13	0x3d672832	0.056434818
14	0x3f209eee	0.6274251
15	0xbecdd883	-0.40204248
16	0xbe630d16	-0.2217296
17	0x3ed997ff	0.42498776
18	0xbdb39ad2	-0.08769764
19	0xbf1156f2	-0.56773293
20	0xbf17d5ca	-0.5931059
21	0xbe1496b3	-0.14510612
22	0x3d87f599	0.06638641
23	0xbeb955e2	-0.36198336
24	0x3dac7aad	0.08421836
25	0xbf0b815b	-0.54494256
26	0x3e0100e9	0.12598003
27	0x3e2deee3	0.1698566
28	0x3e7fd0b2	0.24981955
29	0x3e5566df	0.20840023
30	0x3c78d926	0.015188491
31	0xbe8724fd	-0.26395407
32	0x3e3e4062	0.18579248
33	0x3e95a124	0.29224503
34	0xbddc6824	-0.10762051
35	0xbe324305	-0.17408378
36	0xbf0ab120	-0.5417652
37	0xbead1021	-0.33801368
38	0x3ec0328a	0.37538558
39	0x3d4ea112	0.050446577
40	0x3da248fb	0.07924076
41	0x3e119764	0.14217907
42	0xbf03d1d3	-0.5149204
43	0xbcabbe0f	-0.02096465
44	0x3e8fdeba	0.28099614
45	0xbd5c3e5b	-0.053770404
46	0xbc190d38	-0.0093415305
47	0xbe95676e	-0.29180473
48	0x3e326f1f	0.17425202
49	0x3e76ced1	0.24102332
50	0x3e5e4500	0.21706009
51	0x3da7d105	0.08194164
52	0xbcab6ae4	-0.020924993
53	0x3d9ae339	0.075628705
54	0x3e3da7fb	0.1852111
55	0xbe56e1ee	-0.20984623
56	0x3c732f65	0.014842843
57	0x3ebe4a86	0.37166232
58	0xbf18f52e	-0.59749115
59	0xbd1f292a	-0.038857616
60	0x3e095181	0.13409998
61	0x3dfa9e4b	0.12237223
62	0x3e03af41	0.12859823
63	0x3d119830	0.035545528
64	0x3f50d39d	0.81572896
65	0x3f74cbd3	0.9562351
66	0xbf2a28eb	-0.66468686
67	0xbef42ba6	-0.4768955
68	0xbddeef87	-0.1088553
69	0xbe0d391c	-0.13791317
70	0xbe5adef0	-0.21374106
71	0x3f03484f	0.5128221
72	0xbed992f7	-0.42494938
73	0x3f4e1f32	0.8051635
74	0xbeef895e	-0.4678449
75	0x3f7d6623	0.98983973
76	0x3f784bd0	0.9699068
77	0x3f096d82	0.5368272
78	0x3dad094c	0.08449039
79	0xbf3253d1	-0.69659144
80	0xbcb44822	-0.022007052
81	0xbe994261	-0.29933456
82	0x3f6447db	0.8917214
83	0x3ee84b36	0.4536988
84	0x3d932844	0.071854144
85	0x3f31f751	0.69518
86	0x3f048dc9	0.51778847
87	0x3ee05c94	0.43820632
88	0x3d88003d	0.066406704
89	0x3ee061f5	0.43824735
90	0x3d19b278	0.037523717
91	0x3dca22f4	0.09869948
92	0x3ebb0b05	0.36531845
93	0xbeb6e9e5	-0.35725322
94	0xbf33766e	-0.70102584
95	0x3f0df593	0.5545284
96	0x3f32f411	0.69903666
97	0x3dcf80b4	0.1013197
98	0xbf295fc8	-0.66161776
99	0x3f01ea2f	0.5074796
100	0x3ea3452b	0.31888708
101	0x3f12e6c1	0.5738335
102	0xbe262911	-0.16226603
103	0xbe1ce422	-0.15321401
104	0xbe3d8a61	-0.18509819
105	0xbf4440f6	-0.7666162
106	0x3d7dab5f	0.06193101
107	0x3ec5ae2e	0.3860945
108	0x3dd593ab	0.10428556
109	0xbf2d6654	-0.67734265
110	0xbf093278	-0.53592634
111	0xbf57ee04	-0.8434756
112	0x3f3ff12c	0.74977374
113	0xbe5884c0	-0.2114439
114	0x3ea0be48	0.31395173
115	0x3f23ef01	0.64036566
116	0xbf131fb4	-0.5747025
117	0x3f1696cf	0.58823866
118	0xbf06bc91	-0.5263148
119	0xbf2971e1	-0.6618939
120	0x3f4612f5	0.77372676
121	0x3f24b159	0.6433311
122	0x3f5bb5c7	0.85824245
123	0x3f871fb6	1.0556552
124	0xbeae111a	-0.33997422
125	0x3d55d0e4	0.052201167
126	0xbc43bf9e	-0.011947541
127	0xbf73dcfd	-0.95259076

q_net.q_net.4.bias f4 [2]
0	0x3d24da1e	0.040247075
1	0x3df5fed3	0.120114945

q_net_target.q_net.0.weight f4 [64, 16]
0	0x3e89707f	0.2684364
1	0xbecc4d70	-0.3990283
2	0x3eb9a721	0.36260322
3	0xbe4a8bde	-0.19779918
4	0x3e1855c3	0.14876465
5	0x3e8529a5	0.26008335
6	0xbde3d3ab	-0.11124357
7	0xbe4bdd5c	-0.1990866
8	0xbeb89f3a	-0.3605898
9	0x3ddc96a2	0.107709184
10	0x3e222143	0.15833001
11	0x3ddf1917	0.108934574
12	0x3ea3b017	0.31970283
13	0x3d78a12d	0.060700584
14	0x3d86f417	0.06589525
15	0xbdc11e6b	-0.0942963
16	0x3f160629	0.5860315
17	0x3ddbc009	0.10729987
18	0xbea64f29	-0.3248227
19	0xbef50961	-0.47858718
20	0x3dc6dcaf	0.09710061
21	0x3ea6084b	0.32428202
22	0xbe4a627c	-0.19764131
23	0x3d931800	0.07182312
24	0xbe9f8c8c	-0.31161916
25	0x3e8c40f7	0.27393314
26	0xbef29ee3	-0.47386846
27	0xbd0eceab	-0.034865063
28	0x3eee9c5e	0.46603674
29	0x3eb586a3	0.35454282
30	0xbe419eba	-0.18908206
31	0x3e3aea9d	0.1825356
32	0x3f042646	0.516209
33	0x3e10b007	0.14129649
34	0x3e148cd1	0.14506842
35	0xbe5e8870	-0.21731734
36	0xbdebd497	-0.11515158
37	0xbe105290	-0.14093995
38	0x3e52aeed	0.20574541
39	0xbe4c1a22	-0.19931844
40	0xbeccbbc6	-0.3998701
41	0xbe1951b3	-0.14972572
42	0x3eb07d4d	0.34470597
43	0x3e5235d5	0.20528348
44	0x3db4f93d	0.08836601
45	0xbd9000e1	-0.07031418
46	0xbece0daa	-0.402448
47	0x3e38dee8	0.18053782
48	0x3e9d1e1f	0.30687043
49	0xbedab9b5	-0.42719808
50	0xbeec6318	-0.46169353
51	0xbed260c8	-0.41089463
52	0x3e8d3623	0.27580366
53	0x3e9f42ef	0.31105754
54	0x3d662f6b	0.056197565
55	0x3d461089	0.048355613
56	0x3ec81797	0.39080498
57	0x3e48fadb	0.19626944
58	0xbd2b96ef	-0.04189199
59	0xbc8f0959	-0.017460512
60	0x3e2d979a	0.16952363
61	0xbe8203e9	-0.25393608
62	0xbe3473db	-0.1762232
63	0xbe82e648	-0.25566316
64	0xbee06b5c	-0.4383191
65	0x3ea2ed27	0.31821558
66	0xbeceee8c	-0.40416372
67	0x3e97aba5	0.29623142
68	0x3e3e0b48	0.18558991
69	0xbec45ef3	-0.3835369
70	0xbe0b347d	-0.13594241
71	0xbcaa64ec	-0.020800076
72	0x3dd6c4ec	0.104867786
73	0xbedfe172	-0.4372669
74	0x3e8663c8	0.26248002
75	0x3e3ca775	0.18423255
76	0x3e130efb	0.14361183
77	0xbe5e8259	-0.21729411
78	0xbe36c128	-0.17847121
79	0xbdf28c32	-0.118431464
80	0x3ea4303b	0.32068047
81	0xbe6b3e62	-0.22973016
82	0xbddbc54c	-0.10730991
83	0xbdcffdab	-0.10155805
84	0xbe2b2b38	-0.16715705
85	0x3e58146f	0.21101545
86	0x3e80ca50	0.25154352
87	0x3ead6c2d	0.33871594
88	0xbd4e8f37	-0.05042955
89	0xbc75ecf1	-0.0150101045
90	0xbe0a34bc	-0.13496679
91	0x3e2a25f5	0.16616042
92	0x3e0ef713	0.13961439
93	0xbebb2d90	-0.365582
94	0x3e153041	0.14569189
95	0xbeb2a47e	-0.34891123
96	0x3d8647ce	0.065566644
97	0xbdc731be	-0.097262844
98	0xbc86f7ec	-0.01647564
99	0x3e6c51ca	0.23078075
100	0x3c8de42a	0.017320711
101	0x3e4da2a3	0.20081572
102	0x3ebebe64	0.37254632
103	0xbe4b964f	-0.19881557
104	0x3ea44b5f	0.32088754
105	0xbd513b40	-0.051081896
106	0xbe035130	-0.1282394
107	0x3d0cea1c	0.03440295
108	0xbdce11f3	-0.10062017
109	0x3f01e541	0.5074044
110	0xbe321553	-0.17390947
111	0x3e883420	0.26602268
112	0x3de09951	0.10966743
113	0xbe8abf98	-0.270993
114	0x3e49f525	0.19722421
115	0x3e460e76	0.19341454
116	0x3e9556fb	0.29167923
117	0x3ee105a8	0.43949628
118	0xbe7c89c2	-0.24661925
119	0x3e0ceb45	0.13761623
120	0xbf0330eb	-0.5124652
121	0x3def2f97	0.11678999
122	0x3f148a7c	0.5802381
123	0x3e0a9458	0.13533151
124	0xbe64d924	-0.22348458
125	0x3e07c897	0.13260113
126	0xbec8efe7	-0.3924553
127	0x3e4906f7	0.19631563
128	0x3e8861d3	0.26637134
129	0xbee6f29e	-0.45106977
130	0xbcf5f288	-0.030022874
131	0x3ea9965c	0.33122528
132	0xbd0c2ea1	-0.034224156
133	0x3e799eba	0.24376956
134	0xbec06231	-0.37574914
135	0x3ea3845b	0.31936917
136	0xbd37df8b	-0.04489092
137	0xbe8e8ea9	-0.27843216
138	0x3e0fb2d0	0.14033055
139	0xbe0ccc46	-0.13749799
140	0xbebe661f	-0.37187287
141	0x3d9f23b0	0.07770479
142	0xbdf120ab	-0.11773809
143	0x3deec0db	0.11657878
144	0xbe9a7726	-0.30169028
145	0xbe166bff	-0.14689635
146	0x3e400e16	0.18755373
147	0x3d6b628d	0.057467032
148	0x3c93db8f	0.01804903
149	0x3ea4b9b3	0.32172927
150	0x3d45e020	0.048309445
151	0xbe8815a4	-0.2657901
152	0x3e4d73ae	0.2006366
153	0x3db6b852	0.08921875
154	0xbe194f86	-0.14971742
155	0x3ded8031	0.11596716
156	0xbeac0f87	-0.33605596
157	0xbe42b332	-0.1901367
158	0x3e33153d	0.1748857
159	0xbea8ad0c	-0.32944524
160	0xbe24e071	-0.16101243
161	0xbdf69766	-0.12040596
162	0x3cc703a7	0.024293734
163	0xbeeeb4b5	-0.46622244
164	0xbdd67763	-0.1047199
165	0x3e03cd6e	0.12871334
166	0xbe9c4eee	-0.3052897
167	0xbdda8237	-0.10669368
168	0x3e4f5301	0.20246507
169	0xbede7502	-0.43448645
170	0x3f28c81c	0.6593034
171	0xbdc8fc9f	-0.09813809
172	0xbeb5faae	-0.35542816
173	0x3f018ac8	0.5060239
174	0x3e3d4138	0.1848191
175	0xbd0ca9f6	-0.034341775
176	0x3e7775d4	0.24166042
177	0x3e6f9b94	0.23399192
178	0xbf3f3154	-0.74684644
179	0x3df46896	0.11934011
180	0x3def570c	0.11686525
181	0xbe5f8f4e	-0.2183201
182	0x3b3ae1e6	0.0028515994
183	0x3e5d135f	0.2158942
184	0xbe45bd7f	-0.19310568
185	0x3e05936e	0.13044521
186	0xbe55e8c7	-0.20889579
187	0xbeba2238	-0.36354232
188	0x3ec09062	0.37610155
189	0x3eca7ca1	0.3954821
190	0x3e1be492	0.15223911
191	0x3d90b0e6	0.07064991
192	0x3edbb9ad	0.42915097
193	0x3e122e37	0.14275442
194	0xbd495b50	-0.049159348
195	0x3dcac586	0.09900956
196	0x3eaec172	0.34131962
197	0x3e35f887	0.17770587
198	0xbd6064c3	-0.054783594
199	0xbe8d09a9	-0.27546433
200	0x3e3f7b18	0.186993
201	0xbd5c191a	-0.053734876
202	0x3e4b1774	0.19833165
203	0xbd2daf3e	-0.042403452
204	0xbde49f71	-0.111632235
205	0xbdb2e67f	-0.0873537
206	0xbe35f139	-0.177678
207	0xbee467dc	-0.44610488
208	0xbeab8eba	-0.3350733
209	0x3e960f9b	0.2930878
210	0x3e935ce0	0.28781796
211	0x3e4249b9	0.18973435
212	0xbe489f74	-0.19592077
213	0x3dc9087f	0.098160736
214	0xbe729aca	-0.2369186
215	0x3dbc2f16	0.091886684
216	0x3e0c2c7a	0.13688841
217	0xbeae56cd	-0.340506
218	0xbe974a23	-0.2954875
219	0xbc966211	-0.018357309
220	0xbdb7b1f6	-0.0896949
221	0xbe9f3f21	-0.3110285
222	0xbd27f58a	-0.04100565
223	0x3e58e478	0.21180904
224	0x3d773600	0.060354233
225	0x3e3f3650	0.18673062
226	0x3ef8ba01	0.4857941
227	0x3ea0d3d3	0.3141161
228	0x3e8d8217	0.27638313
229	0xbf0cbf4c	-0.54979396
230	0xbe8ec44e	-0.27884144
231	0x3dcdeb4d	0.10054646
232	0x3ea629a1	0.32453635
233	0xbe24d9ab	-0.16098659
234	0x3e886668	0.2664063
235	0x3e2c518b	0.16827981
236	0xbdc48e71	-0.09597481
237	0x3ec2248d	0.3791851
238	0xbe84a8b3	-0.25909957
239	0xbe7c4152	-0.24634293
240	0xbec53a31	-0.3852096
241	0x3e00527f	0.1253147
242	0xbe36bf7e	-0.17846486
243	0xbeb52008	-0.35376
244	0x3e831336	0.25600594
245	0x3d8756cd	0.06608353
246	0x3db1b564	0.08677176
247	0xbeed0d58	-0.46299243
248	0xbd58f0ad	-0.0529639
249	0x3e95833f	0.29201695
250	0xbbb4a9d4	-0.005513409
251	0x3e5f6f8f	0.218199
252	0x3ea83d01	0.32859042
253	0xbe56d972	-0.20981386
254	0x3da39f7f	0.07989406
255	0x3dd84ab3	0.10561123

q_net_target.q_net.0.bias f4 [64]
0	0xbe488e11	-0.19585444
1	0xbe509e45	-0.20372875
2	0x3eaa89d6	0.33308285
3	0xbebf5fa5	-0.37377658
4	0x3e9968f1	0.29962876
5	0xbc4fbd57	-0.0126794195
6	0x3dfecaad	0.12441001
7	0x3e15229e	0.14563987
8	0xbe26d862	-0.16293481
9	0xbdfe0591	-0.124034055
10	0xbe908074	-0.28223002
11	0xbdddfc48	-0.108391345
12	0x3dfa9668	0.12235719
13	0xbe6976de	-0.2279925
14	0xbe3ee80d	-0.18643208
15	0x3dc64b47	0.09682327
16	0x3d0c6ae7	0.034281638
17	0xbe99aabb	-0.3001307
18	0x3e656cc2	0.22404769
19	0xbdb2efcd	-0.087371446
20	0x3e694c6e	0.22783062
21	0xbd9a257c	-0.07526681
22	0xbcaf312a	-0.021385748
23	0xbcdb15f2	-0.026743863
24	0xbd89d82a	-0.06730683
25	0x3e21e244	0.1580897
26	0xbea3d0c4	-0.31995213
27	0x3d860c8b	0.06545361
28	0xbd968f61	-0.07351566
29	0xb9a110b9	-0.00030720772
30	0x3dd1226e	0.10211645
31	0x3d7608af	0.060066875
32	0x3db6a784	0.0891867
33	0xbe9cf106	-0.30652636
34	0x3d462e60	0.04838407
35	0x3e0dd971	0.13852479
36	0xbe3c14fd	-0.18367381
37	0xbe700f55	-0.23443349
38	0xbdbf0312	-0.093267575
39	0xbdab9114	-0.08377281
40	0x3ba42e65	0.0050104135
41	0xbdcbefd1	-0.09957851
42	0xbe5e8608	-0.21730816
43	0x3d684804	0.056709304
44	0x3e109a63	0.14121394
45	0x3b7cc89e	0.0038571726
46	0xbbf1c733	-0.0073784827
47	0x3dfe5946	0.12419371
48	0xbe52a5a4	-0.20571
49	0x3db54066	0.08850174
50	0x3e6cb716	0.23116717
51	0xbdfa6203	-0.122257255
52	0xbdba8d42	-0.09108974
53	0xbd07daad	-0.03316753
54	0xbe6dbada	-0.2321581
55	0xbdf445ba	-0.11927362
56	0xbe604eb1	-0.21905018
57	0x3dfe1f15	0.12408272
58	0xbc94ce2a	-0.018164713
59	0xbec3d0e3	-0.38245305
60	0x3e0863b2	0.1331928
61	0xbe4f6431	-0.20253064
62	0xbd73b658	-0.05950007
63	0xbe1226a0	-0.14272547

q_net_target.q_net.2.weight f4 [64, 64]
0	0xbd768991	-0.060189787
1	0xbf302a1e	-0.68814266
2	0xbe32ec0d	-0.17472859
3	0x3e470ab1	0.19437672
4	0xbd30c32a	-0.043154873
5	0x3e83d27e	0.2574653
6	0x3d8d7fa5	0.06909112
7	0x3bc7e7e1	0.00610064
8	0x3eb4f1dc	0.35340774
9	0xbdd5c289	-0.10437495
10	0x3ec319f8	0.3810575
11	0xbd4162ac	-0.04721324
12	0xbe21e148	-0.15808594
13	0x3c9b8e97	0.01898889
14	0xbe0be8eb	-0.1366307
15	0xbe2ec76a	-0.17068258
16	0xbe153f41	-0.1457491
17	0x3aa7215e	0.0012751033
18	0x3e093e17	0.13402592
19	0x3e1735a3	0.14766555
20	0x3e01811b	0.12646906
21	0xbed02bfe	-0.40658563
22	0x3ee9a16d	0.4563097
23	0x3da1132d	0.078649856
24	0x3e8df2dd	0.27724352
25	0xbe0337fb	-0.12814324
26	0xbd962182	-0.0733061
27	0x3e8e8327	0.27834436
28	0x3b97015c	0.0046083163
29	0x3ec28663	0.37993154
30	0xbe133c64	-0.14378506
31	0xbd82f05c	-0.06393501
32	0x3e266893	0.1625083
33	0xbf307605	-0.68930084
34	0x3dc32ff8	0.09530634
35	0xbce6acd1	-0.028158577
36	0x3e27a65a	0.16372052
37	0xbe316fd8	-0.17327821
38	0x3ef95e34	0.48704684
39	0xbedf35ce	-0.43595737
40	0x3e542ec1	0.2072096
41	0x3e8fba1d	0.2807168
42	0x3cbbb974	0.02291558
43	0xbea0f64a	-0.31437904
44	0xbd61ba62	-0.05510939
45	0xbde65baa	-0.11247952
46	0x3da3eda9	0.080043145
47	0xbea90fae	-0.33019775
48	0x3d1f3a6d	0.03887408
49	0x3b2055ad	0.002446513
50	0x3e1e342a	0.15449587
51	0xbde40a86	-0.1113482
52	0xbeb719a1	-0.3576174
53	0x3ea7606c	0.32690752
54	0x3e0f5622	0.13997701
55	0x3da9154b	0.082560144
56	0x3c30fce8	0.010802485
57	0xbd176a45	-0.03696658
58	0x3db808dc	0.08986065
59	0xbc627888	-0.013822682
60	0xbde7e418	-0.11322802
61	0xbe312439	-0.17298974
62	0x3e111e81	0.14171793
63	0x3eb60a48	0.3555472
64	0xbdb816bb	-0.089887105
65	0xbf20b01f	-0.6276874
66	0xbf228f16	-0.6349958
67	0xbe196a15	-0.14981873
68	0x3dd96362	0.10614659
69	0xbd9e6d40	-0.077356815
70	0xbed83c75	-0.42233625
71	0xbecdbb38	-0.401819
72	0x3da2dcf2	0.07952298
73	0x3e288a70	0.1645906
74	0x3e9ec3db	0.310088
75	0xbd4a0646	-0.04932239
76	0x3e0aa964	0.1354118
77	0xbebe495f	-0.37165353
78	0xbf2e4827	-0.68078846
79	0xbd286663	-0.04111327
80	0x3dbf9802	0.09355165
81	0xbe0347fe	-0.12820432
82	0xbde7d8e2	-0.11320664
83	0xbdf5ce80	-0.120022774
84	0x3dc8141d	0.09769461
85	0xbe201aa4	-0.15635163
86	0x3e768e3a	0.24077693
87	0xbdcd55e4	-0.10026148
88	0xbecbea2c	-0.39827096
89	0x3e8aeb28	0.27132535
90	0xbe77c3ac	-0.24195737
91	0x3eac34d3	0.33634052
92	0xbeac0e62	-0.33604723
93	0x3db6bb68	0.08922464
94	0x3e3ce99c	0.1844849
95	0x3e0d4266	0.1379486
96	0x3e3f6eee	0.1869466
97	0xbf1f494e	-0.6222123
98	0x3ea22abe	0.31673235
99	0x3e673cd9	0.22581805
100	0x3e5ced89	0.21574987
101	0xbeb6a2cc	-0.3567108
102	0x3ef236cc	0.47307432
103	0xbebd7a44	-0.37007344
104	0xbda243bd	-0.07923076
105	0x3e4ebdb4	0.20189553
106	0x3dfbb0fe	0.12289618
107	0xbdb79d47	-0.08965545
108	0x3e8628e1	0.26203063
109	0xbf6c44b7	-0.9229235
110	0xbe680ef1	-0.2266195
111	0x3df63e07	0.120235495
112	0xbe3cea56	-0.18448767
113	0xbd976498	-0.073922336
114	0x3ee6a876	0.450504
115	0xbdd106eb	-0.102063976
116	0xbc6d25e9	-0.0144743705
117	0x3ea864dc	0.3288945
118	0xbe96b004	-0.29431164
119	0x3e03dcb0	0.12877154
120	0x3e4930f9	0.19647588
121	0xbca679e1	-0.020321788
122	0xbd43b7f2	-0.047782846
123	0x3d91d717	0.07121103
124	0xbf1b2885	-0.606087
125	0xbe14bd19	-0.1452526
126	0x3e2d6076	0.16931328
127	0x3ef72d40	0.4827671
128	0xbe289c65	-0.1646591
129	0xbf1fae07	-0.6237492
130	0xbe53f856	-0.20700201
131	0x3dfdc7cd	0.123916246
132	0xbcc4ea6e	-0.024037566
133	0x3daa910c	0.08328447
134	0xbe7cf58c	-0.24703044
135	0xbf21a33f	-0.6313972
136	0xbb98a5f6	-0.004658456
137	0x3ea59dea	0.3234704
138	0x3d4f6cdb	0.050640922
139	0xbdf3e8bb	-0.11909624
140	0x3de64a21	0.11244608
141	0xbd1acf27	-0.037795212
142	0x3e97e225	0.29664722
143	0x3e1096fb	0.14120094
144	0xbdbb1b50	-0.09136069
145	0x3e2f29f5	0.17105849
146	0xbdba8092	-0.09106554
147	0x3e9897e8	0.29803395
148	0xbe1064e8	-0.14100993
149	0xbc49278b	-0.012277494
150	0xbeb377de	-0.3505239
151	0x3cdd4e14	0.02701477
152	0xbd0f061f	-0.034917947
153	0xbe4c7a86	-0.19968614
154	0xbebffea5	-0.37498966
155	0xbf62b646	-0.8855938
156	0x3e971212	0.29505974
157	0x3de410fb	0.11136051
158	0xbea011ad	-0.31263486
159	0x3debf8cb	0.11522063
160	0x3db9e5c0	0.090770245
161	0x3e0fe786	0.14053163
162	0x3c4dba26	0.012556588
163	0xbcea439e	-0.028596696
164	0xbe15d585	-0.14632232
165	0xbe6e3442	-0.23262122
166	0x3cbd161f	0.023081837
167	0xbe693de0	-0.2277751
168	0xbd47141b	-0.04860316
169	0x3da3c97d	0.07997415
170	0xbe779ea0	-0.24181604
171	0xbdc84445	-0.097786464
172	0x3dfdaa2f	0.123859756
173	0x3ce7f4cf	0.028314976
174	0x3dbfe1ad	0.09369216
175	0x3e5ecd61	0.21758033
176	0x3e144025	0.14477594
177	0x3d695abe	0.056971304
178	0x3cc93176	0.024559718
179	0x3eacc65f	0.33745095
180	0x3e8f4869	0.27984932
181	0x3e23841a	0.15968361
182	0x3d987107	0.07443433
183	0x3d3325d9	0.043737266
184	0xbd5fbff7	-0.05462643
185	0xbe30a3b0	-0.17249942
186	0xbe8c3b08	-0.27388787
187	0x3dba0f43	0.09084942
188	0xbe4f9c09	-0.20274366
189	0x3e56ad83	0.20964627
190	0xbd648b2c	-0.055796787
191	0x3e0dd68e	0.13851377
192	0xbdfc0621	-0.123058565
193	0xbebe5674	-0.37175333
194	0x3e525ec2	0.2054396
195	0xbf3abbaa	-0.729426
196	0x3e24f74a	0.16109958
197	0xbddbe67c	-0.10737321
198	0x3ea47365	0.3211929
199	0xbdfdcf9a	-0.123931125
200	0xbf03373c	-0.51256156
201	0xbd1f4fef	-0.03889459
202	0x3df320e0	0.11871505
203	0xbe01315d	-0.12616487
204	0x3da28d7b	0.079371415
205	0xbe0ab0c2	-0.1354399
206	0x3e8836e3	0.26604375
207	0x3d69299d	0.05692445
208	0x3e5b8fcf	0.21441577
209	0x3e11f46d	0.14253397
210	0x3e91c537	0.28470775
211	0x3e333c20	0.17503405
212	0xbdce4041	-0.10070849
213	0x3e588b5f	0.21146916
214	0xbe72e058	-0.23718393
215	0x3d98b89d	0.07457087
216	0x3c552871	0.01301013
217	0x3e66529c	0.2249245
218	0xbcafa7e6	-0.021442365
219	0xbd5e5715	-0.054282267
220	0xbe565835	-0.20932086
221	0xbdd0b012	-0.10189833
222	0x3c853e6c	0.016265117
223	0xbe753e9c	-0.23949665
224	0x3e1252f1	0.14289452
225	0x3e122b85	0.14274414
226	0xbea5d8a5	-0.3239185
227	0x3e308bde	0.17240855
228	0x3dd6c5d1	0.10486949
229	0x3d769d82	0.060208805
230	0x3d7105f9	0.058843587
231	0x3c6d8dfa	0.014499182
232	0x3dda2a47	0.10652595
233	0xbd4c2f4a	-0.049849786
234	0x3e4dcd03	0.20097737
235	0x3d66c576	0.056340657
236	0xbc7154d5	-0.014729698
237	0x3d981404	0.07425693
238	0x3e0c8357	0.13721977
239	0x3ce20d93	0.027594363
240	0xbec311b2	-0.38099438
241	0x3e3446e6	0.1760517
242	0x3e0adb74	0.13560277
243	0xbea5c3b6	-0.32375878
244	0x3d6b8c0a	0.0575066
245	0x3dc515e6	0.096233174
246	0x3e807043	0.2508565
247	0x3d94e25c	0.07269737
248	0xbe00eb57	-0.12589775
249	0xbb308f7b	-0.002694099
250	0x3e1a5c5c	0.15074295
251	0xbd541e4d	-0.05178671
252	0x3e1206ec	0.14260453
253	0x3e4b4d8a	0.19853798
254	0xbe55f2d3	-0.20893411
255	0x3d969d3c	0.07354209

q_net_target.q_net.2.bias f4 [64]
0	0x3da492ab	0.08035787
1	0x3e2762c3	0.16346268
2	0xbda84e76	-0.0821809
3	0x3e027f20	0.12743807
4	0x3c399ec9	0.011329361
5	0x3c2a0340	0.010376751
6	0xbcff1a53	-0.031140482
7	0xbcf67abd	-0.030087823
8	0xbdc73721	-0.09727312
9	0x3e49440d	0.19654866
10	0xbd225b21	-0.03963769
11	0x3d65b965	0.05608501
12	0xbca702d4	-0.02038709
13	0x3daa3ef2	0.08312787
14	0xbd1115c7	-0.03542116
15	0xbe14a493	-0.14515905
16	0xbd8ec48f	-0.06971084
17	0xbdca5423	-0.09879329
18	0xbd2bc5f1	-0.04193682
19	0x3e20821b	0.15674631
20	0xbd0f6cc1	-0.035015825
21	0x3d8d37c2	0.068954006
22	0x3e320663	0.17385249
23	0xbd16a696	-0.036779962
24	0x3e816c70	0.25278044
25	0xbd3118ea	-0.04323665
26	0x3e222965	0.15836103
27	0x3e8f2e0c	0.27964818
28	0x3e87a3c9	0.26492146
29	0x3da14afc	0.0787563
30	0xbd6e20c5	-0.05813672
31	0x3e308a4f	0.1724026
32	0x3e88fe6b	0.26756606
33	0x3e8daab2	0.27669293
34	0xbd0d1a0b	-0.034448665
35	0xbd07d350	-0.033160508
36	0x3d3d0400	0.046146393
37	0x3dc83100	0.09774971
38	0x3c0097ae	0.007848663
39	0x3c9dcd51	0.019262942
40	0x3d401b07	0.046900775
41	0xbdf15097	-0.117829494
42	0x3c8722b5	0.016496042
43	0x3d49389c	0.049126253
44	0x3e38d275	0.18049033
45	0x3db54ea4	0.0885289
46	0xbbfb33c2	-0.007666082
47	0xbe07a8ac	-0.13247937
48	0x3e6a9dee	0.22911808
49	0x3d546ab9	0.05185959
50	0x3e3cddb0	0.18443942
51	0x3e0992c1	0.13434888
52	0xbd777347	-0.06041267
53	0x3c92df0c	0.017928623
54	0xbdf8c746	-0.121473834
55	0xbc2ab7b5	-0.010419776
56	0xbcfb76c2	-0.030696277
57	0x3e011926	0.1260725
58	0xbd282916	-0.041054808
59	0x3deeded4	0.11663595
60	0x3dc09525	0.09403447
61	0x3e70ac7e	0.235033
62	0x3df2cbf0	0.11855304
63	0xbd2fb43d	-0.042896498

q_net_target.q_net.4.weight f4 [2, 64]
0	0x3e11a3da	0.1422266
1	0xbe3af00d	-0.18255635
2	0x3d344c8a	0.044018306
3	0x3d90bc7e	0.07067202
4	0x3e140291	0.14454104
5	0x3e0a32f3	0.13495998
6	0x3db2aba8	0.08724147
7	0xbf1980dd	-0.59962255
8	0xbec3d88b	-0.38251147
9	0xbce43834	-0.027858831
10	0x3e40aff6	0.18817124
11	0xbd3de5df	-0.0463618
12	0xbe838900	-0.2569046
13	0x3d68722b	0.056749504
14	0x3f209d8b	0.6274039
15	0xbecdc432	-0.40188748
16	0xbe6346c4	-0.22194964
17	0x3ed99d24	0.425027
18	0xbdb388da	-0.08766337
19	0xbf1153ab	-0.5676829
20	0xbf17d0fe	-0.5930327
21	0xbe14ebab	-0.14543025
22	0x3d8765f0	0.0661124
23	0xbeb930f1	-0.36170152
24	0x3dac5c27	0.08416014
25	0xbf0b8989	-0.54506737
26	0x3e00edb0	0.1259067
27	0x3e2dd929	0.16977371
28	0x3e7f9192	0.24957874
29	0x3e554b62	0.20829538
30	0x3c72eadc	0.014826503
31	0xbe873601	-0.2640839
32	0x3e3e0981	0.18558313
33	0x3e958d97	0.29209587
34	0xbddd3408	-0.1080094
35	0xbe3204b0	-0.173846
36	0xbf0ac079	-0.5419994
37	0xbead1c7b	-0.3381079
38	0x3ebfebaa	0.37484485
39	0x3d4de906	0.050271057
40	0x3da1f584	0.079081565
41	0x3e1210ad	0.14264174
42	0xbf03dd4d	-0.51509553
43	0xbcaa90a2	-0.02082092
44	0x3e8fbe80	0.28075027
45	0xbd5d7c9c	-0.054073915
46	0xbc15a8e0	-0.009134501
47	0xbe95693c	-0.2918185
48	0x3e322b87	0.17399417
49	0x3e76cccc	0.24101561
50	0x3e5e6ff6	0.21722397
51	0x3da7638c	0.08173284
52	0xbcaf34b5	-0.021387437
53	0x3d99f3d5	0.075172104
54	0x3e3d7028	0.18499815
55	0xbe5669f7	-0.2093886
56	0x3c74ee62	0.014949413
57	0x3ebe16fa	0.37126905
58	0xbf18e144	-0.5971873
59	0xbd1ed5c1	-0.03877807
60	0x3e0906e3	0.13381533
61	0x3dfa8439	0.12232251
62	0x3e038cd4	0.1284669
63	0x3d142407	0.03616717
64	0x3f50dcb3	0.8158676
65	0x3f74bed8	0.95603704
66	0xbf2a3739	-0.66490513
67	0xbef438ff	-0.47699735
68	0xbddf61f3	-0.10907354
69	0xbe0d4c97	-0.13798748
70	0xbe5b009d	-0.21386953
71	0x3f0351c9	0.5129667
72	0xbed9860d	-0.42485085
73	0x3f4e26bc	0.80527854
74	0xbeefa1bb	-0.46803078
75	0x3f7d5871	0.98963076
76	0x3f783879	0.9696117
77	0x3f0957f9	0.5364986
78	0x3dac2978	0.08406347
79	0xbf324238	-0.6963229
80	0xbcb4d642	-0.022074822
81	0xbe99352b	-0.29923376
82	0x3f6436ab	0.89145917
83	0x3ee83303	0.4535142
84	0x3d92ff03	0.07177546
85	0x3f31e77c	0.6949384
86	0x3f047870	0.51746273
87	0x3ee07ad4	0.4384371
88	0x3d87f0fc	0.06637761
89	0x3ee05db7	0.438215
90	0x3d19510f	0.03743082
91	0x3dca1600	0.098674774
92	0x3ebafa3e	0.36519045
93	0xbeb6f6a3	-0.35735044
94	0xbf336dc9	-0.70089394
95	0x3f0decd4	0.55439496
96	0x3f32e2d5	0.6987737
97	0x3dcf51e2	0.1012304
98	0xbf2973d9	-0.66192394
99	0x3f01e5cf	0.50741285
100	0x3ea3387d	0.31879035
101	0x3f12e701	0.57383734
102	0xbe26099f	-0.16214608
103	0xbe1d1d54	-0.15343219
104	0xbe3db9a1	-0.18527843
105	0xbf4442d2	-0.7666446
106	0x3d7e10a6	0.062027596
107	0x3ec5ae9c	0.3860978
108	0x3dd5a0c3	0.104310535
109	0xbf2d6ff4	-0.6774895
110	0xbf09330b	-0.5359351
111	0xbf57dac0	-0.8431816
112	0x3f3fd975	0.7494119
113	0xbe58b9f5	-0.21164687
114	0x3ea0bf9d	0.3139619
115	0x3f23e14f	0.6401567
116	0xbf13175f	-0.57457536
117	0x3f167efc	0.5878751
118	0xbf06b362	-0.52617466
119	0xbf297342	-0.66191494
120	0x3f45ffff	0.77343744
121	0x3f2494a6	0.6428932
122	0x3f5b8d39	0.85762364
123	0x3f8715a5	1.055348
124	0xbeae2d5a	-0.34018975
125	0x3d5583b7	0.052127566
126	0xbc47d99d	-0.012197879
127	0xbf73efa3	-0.9528753

q_net_target.q_net.4.bias f4 [2]
0	0x3d245a15	0.04012497
1	0x3df5c0dd	0.119996764
